…
}}"
1710375955508,"/miniconda3/lib/python3.9/site-packages/torch/nn/utils/weight_norm.py:30: UserWarning: torch.nn.utils.weight_norm is deprecated in favor of torch.nn.utils.parametrizations.weight_norm.
  warnings.warn(""torch.nn.utils.weight_norm is deprecated in favor of torch.nn.utils.parametrizations.weight_norm."")"
1710375956509,"[2024-03-14 00:25:55,989][fairseq_cli.train][INFO] - Wav2VecCtc(
  (w2v_encoder): Wav2VecEncoder(
    (w2v_model): Wav2Vec2Model(
      (feature_extractor): ConvFeatureExtractionModel(
        (conv_layers): ModuleList(
          (0): Sequential(
            (0): Conv1d(1, 128, kernel_size=(10,), stride=(5,), bias=False)
            (1): Dropout(p=0.0, inplace=False)
            (2): Fp32GroupNorm(128, 128, eps=1e-05, affine=True)
            (3): GELU(approximate='none')
          )
          (1): Sequential(
            (0): Conv1d(128, 256, kernel_size=(3,), stride=(2,), bias=False)
            (1): Dropout(p=0.0, inplace=False)
            (2): GELU(approximate='none')
          )
          (2): Sequential(
            (0): Conv1d(256, 256, kernel_size=(3,), stride=(2,), bias=False)
            (1): Dropout(p=0.0, inplace=False)
            (2): GELU(approximate='none')
          )
          (3): Sequential(
            (0): Conv1d(256, 512, kernel_size=(3,), stride=(2,), bias=False)
            (1): Dropout(p=0.0, inplace=False)
            (2): GELU(approximate='none')
          )
          (4): Sequential(
            (0): Conv1d(512, 512, kernel_size=(3,), stride=(2,), bias=False)
            (1): Dropout(p=0.0, inplace=False)
            (2): GELU(approximate='none')
          )
          (5): Sequential(
            (0): Conv1d(512, 1024, kernel_size=(2,), stride=(2,), bias=False)
            (1): Dropout(p=0.0, inplace=False)
            (2): GELU(approximate='none')
          )
          (6): Sequential(
            (0): Conv1d(1024, 1024, kernel_size=(2,), stride=(2,), bias=False)
            (1): Dropout(p=0.0, inplace=False)
            (2): GELU(approximate='none')
          )
        )
      )
      (post_extract_proj): Linear(in_features=1024, out_features=384, bias=True)
      (dropout_input): Dropout(p=0.0, inplace=False)
      (dropout_features): Dropout(p=0.1, inplace=False)
      (quantizer): None
      (project_q): None
      (encoder): TransformerEncoder(
        (pos_conv): Sequential(
          (0): Conv1d(384, 384, kernel_size=(128,), stride=(1,), padding=(64,), groups=16)
          (1): SamePad()
          (2): GELU(approximate='none')
        )
        (layers): ModuleList(
          (0-11): 12 x TransformerSentenceEncoderLayer(
            (self_attn): MultiheadAttention(
              (dropout_module): FairseqDropout()
              (k_proj): Linear(in_features=384, out_features=384, bias=True)
              (v_proj): Linear(in_features=384, out_features=384, bias=True)
              (q_proj): Linear(in_features=384, out_features=384, bias=True)
              (out_proj): Linear(in_features=384, out_features=384, bias=True)
            )
            (dropout1): Dropout(p=0.0, inplace=False)
            (dropout2): Dropout(p=0.1, inplace=False)
            (dropout3): Dropout(p=0.0, inplace=False)
            (self_attn_layer_norm): FusedLayerNorm(torch.Size([384]), eps=1e-05, elementwise_affine=True)
            (fc1): Linear(in_features=384, out_features=1536, bias=True)
            (fc2): Linear(in_features=1536, out_features=384, bias=True)
            (final_layer_norm): FusedLayerNorm(torch.Size([384]), eps=1e-05, elementwise_affine=True)
          )
        )
        (layer_norm): FusedLayerNorm(torch.Size([384]), eps=1e-05, elementwise_affine=True)
      )
      (layer_norm): FusedLayerNorm(torch.Size([1024]), eps=1e-05, elementwise_affine=True)
      (final_proj): None
    )
    (final_dropout): Dropout(p=0.0, inplace=False)
    (proj): Linear(in_features=384, out_features=44, bias=True)
  )"
1710375956509,)
1710375956509,"[2024-03-14 00:25:55,992][fairseq_cli.train][INFO] - task: AudioFinetuningTask"
1710375956509,"[2024-03-14 00:25:55,992][fairseq_cli.train][INFO] - model: Wav2VecCtc"
1710375956509,"[2024-03-14 00:25:55,992][fairseq_cli.train][INFO] - criterion: CtcCriterion"
1710375956509,"[2024-03-14 00:25:55,993][fairseq_cli.train][INFO] - num. shared model params: 27,509,292 (num. trained: 27,509,292)"
…
